…
    "50_44_0.0050.csv",
    "70_32_0.0050.csv",
    "75_26_0.0050.csv",
    "60_58_0.0050.csv",
    "50_32_0.0050.csv",
    "85_56_0.0050.csv",
    "75_44_0.0050.csv",
    "85_48_0.0050.csv",
    "50_22_0.0050.csv",
    "85_46_0.0050.csv",
    "60_54_0.0050.csv"
  ],
  "hyperparameters": {
    "batch_size": 1024,
    "chunk_size": 20,
    "num_epochs": 100,
    "learning_rate": 0.001,
    "pressure_weight": 1.0,
    "velocity_weight": 1.0,
    "validation_split": 0.2,
    "load_in_batches": false,
    "n_jobs": 16
  },
  "random_seed": 42,
  "model_architecture": "FanBladeNN(\n  (encoder): Sequential(\n    (0): Linear(in_features=7, out_features=128, bias=True)\n    (1): ReLU()\n    (2): Linear(in_features=128, out_features=256, bias=True)\n    (3): ReLU()\n    (4): Linear(in_features=256, out_features=512, bias=True)\n    (5): ReLU()\n    (6): Linear(in_features=512, out_features=512, bias=True)\n    (7): ReLU()\n    (8): Linear(in_features=512, out_features=512, bias=True)\n    (9): ReLU()\n  )\n  (velocity_head): Sequential(\n    (0): Linear(in_features=512, out_features=512, bias=True)\n    (1): ReLU()\n    (2): Linear(in_features=512, out_features=512, bias=True)\n    (3): ReLU()\n    (4): Linear(in_features=512, out_features=512, bias=True)\n    (5): ReLU()\n    (6): Linear(in_features=512, out_features=512, bias=True)\n    (7): ReLU()\n    (8): Linear(in_features=512, out_features=512, bias=True)\n    (9): ReLU()\n    (10): Linear(in_features=512, out_features=3, bias=True)\n  )\n  (pressure_head): Sequential(\n    (0): Linear(in_features=512, out_features=512, bias=True)\n    (1): ReLU()\n    (2): Linear(in_features=512, out_features=512, bias=True)\n    (3): ReLU()\n    (4): Linear(in_features=512, out_features=512, bias=True)\n    (5): ReLU()\n    (6): Linear(in_features=512, out_features=512, bias=True)\n    (7): ReLU()\n    (8): Linear(in_features=512, out_features=512, bias=True)\n    (9): ReLU()\n    (10): Linear(in_features=512, out_features=1, bias=True)\n  )\n)",
  "device": "cuda",
  "device_0": "cuda:0",
  "scalers_path": "scalers.pkl",
  "training": {
    "epoch_times": [
      … "train_loss_history": [
      … "val_loss_history": [
      … "train_pressure_loss": [
      … "train_velocity_loss": [
      … "val_pressure_loss": [
      … "val_velocity_loss": [
      … "lr_history": [
      … "best_model": {
…
